CPR2U-Android/app/src/main/assets/pose_classifier.tflite (tflite, 26720 bytes, 6 tensors)

model/dense_2/MatMul f4 [2, 64]
00000000: fa95 323e 1b87 53bd 94b0 bcbc 4274 32be
00000010: 472b 383e 0abd 49be 4f68 35be 608b 3dbd
00000020: 1b6f 0d3e baf6 61be 484b 2d3e eb44 51bd
00000030: 15fa 983e 63b3 4d3e bd22 a43d cc36 873e
00000040: be7b 2ebe 1b94 01bc b8dc a8bd a6bc 37bd
00000050: 9d44 c0be aaaa a13e d7e8 a1be aefc d43c
00000060: 18c3 2d3e ab61 7f3e 3481 9a3e e12c dcbb
00000070: ed3e 733e f41c 2e3e c128 983e 936a 60be
00000080: a3b2 44be e7ff 0bbe 0a96 bcbd 73f6 3d3e
00000090: 6549 1bbe 98f0 0abe 8498 7bbd 5a8c c7bc
000000a0: a6fd 6f3e 8bc2 bdbe 5dc2 37be eff9 903e
000000b0: a451 cbbb 1f69 02be 8756 0d3e d530 923e
000000c0: 43aa f2bd e0a3 69bc bcfd 563e da96 693e
000000d0: 8123 7b3e 88f5 97bd ddbd 093e 6a39 693e
000000e0: 422d 62bd f17f bbbe 7896 ae3e fcb9 bfbe
000000f0: 40ba 99be 334b b4be fdc9 913e 0ac0 89be
00000100: 9a06 e73b 423f 223e d5ca 463e 941b 843e
00000110: 2f02 1c3e 5eff 40bd a7f6 b63d 972e 5cbe
00000120: 2ce2 9cbd 2817 6c3e d8ca 55be bed5 c13d
00000130: 66ed e9bb c756 5cbc 3b64 4bbd 2335 afbd
00000140: 6248 7f3e 62c6 77be 0eeb 51be 45a3 2a3e
00000150: fd31 f2bd f117 90be 5727 34be 1da4 48bb
00000160: b2df 07be f6fd 1cbe 70d3 3ebc 33ae 5e3e
00000170: 56e7 e8bd 056b 6fbe f422 1f3e 116c 58be
00000180: 2094 ca3e 8b53 293e 3f22 8bbe 4581 dcbd
00000190: db81 6dbe 8fde 923e e22f 53be a1f4 9abe
000001a0: 2a10 8abe 25c2 973e 0e79 473e 29cb 08be
000001b0: 6c7c e1bd 7ccd 833e acde 7abd bd3f 873d
000001c0: 0ad1 9c3e 42ec 4dbe 5b38 3bbe 5a94 6bbe
000001d0: 001d 73be c5d3 bf3e a490 4fbe a8fe f9bd
000001e0: 8adc 643e 58c5 023e 5db7 bbbd ead6 e93d
000001f0: f01e 813e cd73 a83e ad6c 843e 7dbe b93e
0.17440024 -0.05164252 -0.023033418 -0.17427161 0.17985259 -0.19701019 -0.17715572 -0.046275496
0.13811915 -0.22066775 0.16923249 -0.051091116 0.29878297 0.20087962 0.08014438 0.26408994
-0.17039391 -0.007908846 -0.08245224 -0.044857644 -0.37552348 0.3157552 -0.31622955 0.025999393
0.16968954 0.24939601 0.301767 -0.006719217 0.23754473 0.17003232 0.29718593 -0.21915655
-0.1920877 -0.13671838 -0.09208305 0.18551044 -0.15164717 -0.13568342 -0.061424747 -0.024358917
0.23436603 -0.37062487 -0.17945237 0.28315684 -0.0062048007 -0.12735413 0.13802539 0.2855288
-0.11848881 -0.014260262 0.2099523 0.22811452 0.24525262 -0.07419878 0.13451333 0.22775808
-0.055218942 -0.3662105 0.34099174 -0.37446582 -0.3002491 -0.35213622 0.28474417 -0.26904327
0.0070503475 0.15844443 0.19413312 0.2580229 0.15235208 -0.047118537 0.08933764 -0.21502148
-0.07660326 0.23055708 -0.2087816 0.09464596 -0.007138896 -0.013448424 -0.049656134 -0.08555057
0.24929956 -0.24196771 -0.20499822 0.16663845 -0.11825941 -0.28143266 -0.17593132 -0.0030615397
-0.13268927 -0.15331253 -0.01164709 0.21746139 -0.11372249 -0.23380668 0.15540677 -0.21134974
0.39566135 0.16535775 -0.27174565 -0.10766844 -0.23194067 0.28685424 -0.20623735 -0.30264762
-0.26965457 0.29640308 0.19479772 -0.1335875 -0.1101006 0.2574271 -0.061247513 0.06603954
0.30628234 -0.20109656 -0.18283217 -0.2300581 -0.23741531 0.37466255 -0.2027002 -0.12206775
0.22349754 0.12770593 -0.09165833 0.11417945 0.25218916 0.3290085 0.25864163 0.36278144

model/dense/BiasAdd/ReadVariableOp f4 [128]
00000000: a0fc fa3b 0571 1ebc 5bb4 2c3c 687f 2bbc
00000010: 584a 0d3d ee4e 4d3c 727b c43c b83d 09bc
00000020: 95ae d83c 0c11 b23c 6651 dc3c ff93 063d
00000030: 4155 7f3c 70f8 c1bc 8602 263d 6078 d53c
00000040: aada 6a3c 82e8 0e3d f69c e03b 66ad c13c
00000050: 067b 11ba 9675 b33c 1f41 563c 90f4 763c
00000060: 7cd9 5b3d fbc1 8b3b aced 233d 0b50 253d
00000070: b774 e23c 36ab 143b deba 543c a65f d33c
00000080: 1cfe 123d 6286 993c 031e 103d a3df e33c
00000090: ec3b b5ba c870 793c 8ebc 2bbc e7ae 373b
000000a0: 435c e23c 5d9b 983b fba4 9abb 97e0 d63c
000000b0: b30f 133c 9554 143d be97 cb3c a824 c83c
000000c0: badf fabc 92dc bf3c 2c5c d23c 7bd4 b63c
000000d0: f240 f63b 2629 3c3d 2ad6 173c 0aa4 2d3d
000000e0: bf5c 4d3c 806d a03c 169b 1c3d c80d 3f3d
000000f0: 8cc1 a83c 743c e53c a027 10bb 7027 073d
00000100: 4b6d 9a3c 06e7 213d 21cd 0c3d e8b1 f73b
00000110: 2378 103d d84b e03c 2725 f33b 69b7 2b3c
00000120: c049 63bc 8238 34bc 1a88 ae3c 7bb2 693c
00000130: 5053 24bc 74c2 c4bb ae84 b1bb feb6 aebb
00000140: 0000 0000 a1c2 803c b674 9abb 0000 0000
00000150: 4c47 14bc 9da2 143c 91cb 313c 86a9 a33c
00000160: b504 0c3d 44b6 0cbb a28a 13bc 7445 dd3c
00000170: e63d 683c 4f17 333b 518c 073c c5aa b9bc
00000180: 70b1 663c 6d05 da3c e274 a73c 7c74 3d3d
00000190: 7a65 b93b 2455 9dba 6322 febb 9c98 3b3c
000001a0: 0bb1 b23c ac0d 903c 946a 283c ca08 57bc
000001b0: e208 3b3d 4784 a6bb 0000 0000 8105 b83c
000001c0: 72df e23c 23cc 65bc 2ef8 57bc 410e 86bc
000001d0: f087 d93c 15dd 65bb ac9c 57bc 2568 8b3c
000001e0: d627 aebb 84a5 1a3c 7898 e83c 93bc 49bc
000001f0: dfba a03c 7f89 19bc 1cc1 a93c baab 443c
0.00765951 -0.009670501 0.010541047 -0.010467388 0.034494728 0.012531025 0.023984645 -0.008376531
0.026450435 0.021736644 0.026894283 0.032855984 0.015584291 -0.023678035 0.04052975 0.026058376
0.01433436 0.034889705 0.0068546487 0.023642253 -0.0005549643 0.021906655 0.0130770495 0.015072957
0.053674206 0.0042650676 0.040021583 0.040359538 0.027643545 0.0022685057 0.012984006 0.025802445
0.03588687 0.018740837 0.03518487 0.0278166 -0.0013827062 0.015224643 -0.010481967 0.0028027834
0.027631884 0.0046571926 -0.0047193742 0.02623014 0.008975911 0.036213476 0.02485263 0.024431542
-0.03062426 0.023420606 0.025678717 0.022318115 0.0075150663 0.04593768 0.009267369 0.042392768
0.012534319 0.019583464 0.03823384 0.046644002 0.020600103 0.027982928 -0.0021996275 0.032996595
0.018850943 0.03952696 0.034375314 0.00755905 0.03527082 0.027379915 0.0074202004 0.01048074
-0.013872564 -0.010999801 0.021305133 0.0142637445 -0.010029629 -0.006004626 -0.005417428 -0.005331873
0.0 0.015717806 -0.00471362 0.0 -0.009050202 0.009071973 0.010851757 0.019978296
0.034184176 -0.0021470943 -0.009005221 0.027010657 0.014174914 0.0027327125 0.0082732 -0.022664437
0.01408039 0.026613915 0.020441476 0.046253666 0.005657849 -0.0012003523 -0.007755564 0.011449959
0.021812936 0.017584644 0.010279316 -0.013124654 0.04566277 -0.0050816867 0.0 0.022463562
0.027694438 -0.014025721 -0.013181729 -0.016364219 0.026554078 -0.0035074402 -0.013159912 0.017017433
-0.0053148074 0.009438876 0.028393015 -0.012313026 0.019620357 -0.0093711605 0.020721965 0.012003833

model/dense_2/BiasAdd/ReadVariableOp f4 [2]
00000000: 7823 e1bc 7723 e13c
-0.027482733 0.027482731

model/dense_1/BiasAdd/ReadVariableOp f4 [64]
00000000: a140 473d cc01 5d3d f40c 453d b640 183d
00000010: 9a9d 8dbb 50df 5b3c 8c82 433d e769 b63c
00000020: ce2c fd3b e507 d8ba 833b 293c 5e80 813c
00000030: ad05 123d a331 fd3b d644 d93c b6b7 bf3c
00000040: dae7 113d 4fba ae3c 7cdb a5bc 6bca 1b3d
00000050: a726 7b3d 4bb4 c53b 6098 653c 6431 443c
00000060: 27ba cd3c 471d 383d 44c8 903a 9251 9b3c
00000070: 2537 563c 8fb4 59bc 8a75 003c 3268 14bc
00000080: 1cec 5e3d 47b7 3ebc 8ea7 2abc f8d4 773d
00000090: c521 5d3c 4de9 103d 6d5d a83c 215c 293d
000000a0: 29a6 b73c 10de c23c 2e17 513d eb4a f73c
000000b0: 63ed b63b 0aa3 253d 3e4b d13c 7432 ce3c
000000c0: 6124 0f3d 5636 80bb 00b6 1c3d 8a01 243b
000000d0: 7230 563d 8dab 2a3d eaca 033d 83e2 563c
000000e0: fe35 5c3d e389 e43c 99ef d33b a698 f93c
000000f0: 0d68 e83c 398f 1e3d f8b3 233b 13b3 0d3d
0.04864562 0.05395679 0.048108056 0.03717109 -0.004321766 0.013419941 0.04773192 0.022267295
0.0077262884 -0.0016481845 0.01032913 0.01580828 0.035649944 0.0077268644 0.026522081 0.02340303
0.0356215 0.021329073 -0.02024626 0.038034838 0.06131616 0.0060334555 0.01401338 0.011974666
0.025113178 0.044949796 0.0011046012 0.018959794 0.013074671 -0.013287677 0.0078405235 -0.009058045
0.05442439 -0.011640376 -0.010415925 0.060505837 0.013496821 0.035378743 0.020552361 0.041347627
0.022418099 0.023787528 0.051047496 0.03018709 0.005582498 0.04043869 0.025548574 0.025170542
0.034946803 -0.0039127273 0.038259506 0.0025025331 0.052292295 0.04166751 0.032175936 0.013115528
0.05376243 0.02789778 0.0064677713 0.030468296 0.028369928 0.038710807 0.0024979096 0.034594607

model/dense/MatMul i1 [128, 34] scale=0.002299594 zero_point=0
00000000: bbe3 0d4a c54e cce3 0bcf fdd0 e015 19f5
00000010: 4b29 b840 115f c4a8 cb26 3a61 eff1 d152
00000020: 1a1b 1534 43e4 ecd6 ad1c c94f d1fd d6c8
00000030: 3d27 43bb 40f8 57d9 c7d7 cff7 11b5 df03
00000040: d0d0 09d6 e5f6 4adb 1d1f e247 c6e0 d8d6
00000050: c5e6 d4c5 272f 3b2b e351 aecd e445 3cd4
00000060: 1f20 3c41 facf 30b4 eae5 39f6 c9dd 06b0
00000070: d6c0 0127 0fca cdf3 0424 0cfa 33f1 b116
00000080: 50af c438 dbf8 09cc 0099 1ac0 38db 48c0
00000090: d1d8 1fd4 d3c1 f0e1 f3ea 31f2 929f 2669
000000a0: d5d5 1dd5 eec9 c206 d2fd 079f 3af9 55f3
000000b0: 2aea e807 23d5 afe8 c9b4 b19c d1f0 da24
000000c0: fdef b898 0911 f415 b3ba d52a b1c9 c3c0
000000d0: a615 1407 a6d7 f04d 3d19 0ec3 b3dc 235f
000000e0: c037 9a0f 0fd6 edd8 2403 1e25 e1f9 191a
000000f0: e311 d201 be21 f1bb d742 5749 ea03 2115
-0.15867199 -0.066688225 0.029894723 0.17016995 -0.13567604 0.17936833 -0.11957889 -0.066688225
0.025295533 -0.11268011 -0.006898782 -0.110380515 -0.07358701 0.048291475 0.05748985 -0.025295533
0.17246956 0.09428336 -0.16557077 0.14717402 0.0390931 0.21846142 -0.13797563 -0.20236427
-0.12187848 0.087384574 0.13337645 0.22306062 -0.0390931 -0.03449391 -0.108080916 0.18856671
0.059789445 0.062089037 0.048291475 0.11957889 0.15407279 -0.06438863 -0.04599188 -0.09658295
-0.1908663 0.06438863 -0.12647767 0.18166792 -0.108080916 -0.006898782 -0.09658295 -0.12877727
0.14027524 0.089684166 0.15407279 -0.15867199 0.14717402 -0.018396752 0.20006467 -0.089684166
-0.13107686 -0.09428336 -0.11268011 -0.020696346 0.0390931 -0.17246956 -0.0758866 0.006898782
-0.110380515 -0.110380515 0.020696346 -0.09658295 -0.062089037 -0.02299594 0.17016995 -0.085084975
0.066688225 0.071287416 -0.06898782 0.16327117 -0.13337645 -0.07358701 -0.09198376 -0.09658295
-0.13567604 -0.059789445 -0.10118213 -0.13567604 0.089684166 0.108080916 0.13567604 0.09888254
-0.066688225 0.18626711 -0.18856671 -0.11727929 -0.06438863 0.15867199 0.13797563 -0.10118213
0.071287416 0.07358701 0.13797563 0.14947361 -0.013797564 -0.11268011 0.110380515 -0.17476915
-0.050591066 -0.062089037 0.13107686 -0.02299594 -0.12647767 -0.08048579 0.013797564 -0.18396752
-0.09658295 -0.14717402 0.002299594 0.089684166 0.03449391 -0.124178074 -0.11727929 -0.029894723
0.009198376 0.08278538 0.027595129 -0.013797564 0.11727929 -0.03449391 -0.18166792 0.050591066
0.18396752 -0.18626711 -0.13797563 0.12877727 -0.085084975 -0.018396752 0.020696346 -0.11957889
0.0 -0.23685817 0.059789445 -0.14717402 0.12877727 -0.085084975 0.16557077 -0.14717402
-0.108080916 -0.09198376 0.071287416 -0.10118213 -0.10348173 -0.14487442 -0.036793504 -0.071287416
-0.029894723 -0.050591066 0.11268011 -0.032194316 -0.25295535 -0.22306062 0.087384574 0.24145737
-0.09888254 -0.09888254 0.066688225 -0.09888254 -0.04139269 -0.12647767 -0.14257483 0.013797564
-0.105781324 -0.006898782 0.016097158 -0.22306062 0.13337645 -0.016097158 0.19546549 -0.029894723
0.09658295 -0.050591066 -0.055190258 0.016097158 0.08048579 -0.09888254 -0.18626711 -0.055190258
-0.12647767 -0.17476915 -0.18166792 -0.2299594 -0.108080916 -0.036793504 -0.087384574 0.08278538
-0.006898782 -0.0390931 -0.16557077 -0.23915778 0.020696346 0.0390931 -0.027595129 0.048291475
-0.17706874 -0.16097158 -0.09888254 0.09658295 -0.18166792 -0.12647767 -0.14027524 -0.14717402
-0.20696346 0.048291475 0.04599188 0.016097158 -0.20696346 -0.09428336 -0.036793504 0.17706874
0.14027524 0.05748985 0.032194316 -0.14027524 -0.17706874 -0.08278538 0.08048579 0.21846142
-0.14717402 0.12647767 -0.23455858 0.03449391 0.03449391 -0.09658295 -0.043692287 -0.09198376
0.08278538 0.006898782 0.06898782 0.085084975 -0.071287416 -0.016097158 0.05748985 0.059789445
-0.066688225 0.0390931 -0.105781324 0.002299594 -0.1517732 0.0758866 -0.03449391 -0.15867199
-0.09428336 0.1517732 0.20006467 0.16787036 -0.050591066 0.006898782 0.0758866 0.048291475

model/dense_1/MatMul i1 [64, 128] scale=0.0022288563 zero_point=0
00000000: d311 3ec7 f7aa f530 c70c 38e3 b9d9 4fd1
00000010: 0afe b82d fb0c fbd9 c607 b03c 19f6 c2d7
00000020: a933 f4eb e9e7 f0df e3ba ac50 d8fd c76b
00000030: edb1 f4d7 d25b 34ee a20f 5ffc cc05 daeb
00000040: 3ae1 d5c1 ec07 3225 d425 0cf3 f6ee 2be5
00000050: be22 4440 d818 e767 3c11 3865 b30d 2525
00000060: 34c2 4bff f6d1 da30 b5f4 290a d033 ea00
00000070: 6ad6 dbf2 d434 e028 ddd6 1928 e53b cc0e
00000080: 22b7 bee4 df47 fb4b b812 4fdd 4c52 2605
00000090: c8b9 64df 2ff9 c133 7eea 0c5f 18e3 7e0e
000000a0: 49f1 4e6d e728 0444 6df9 61e4 1336 6dbb
000000b0: 211e 63ed f6bf 2227 ed76 cc01 3a00 361c
000000c0: 0ab1 3341 1452 23fb eac3 0273 4df2 cef4
000000d0: f426 ff46 5bea 30fe b10c f2ed 7fcd 1823
000000e0: 060f 046f 3516 ca29 09f5 5b30 2d41 c139
000000f0: febe d441 1a0e f840 06e0 dd10 28cc 142d
-0.10029853 0.037890557 0.13818909 -0.12704481 -0.020059707 -0.19168164 -0.024517419 0.10698511
-0.12704481 0.026746277 0.124815956 -0.064636834 -0.1582488 -0.086925395 0.17607965 -0.10475624
0.022288563 -0.0044577126 -0.16047765 0.10029853 -0.011144281 0.026746277 -0.011144281 -0.086925395
-0.12927367 0.0156019945 -0.1783085 0.13373138 0.05572141 -0.022288563 -0.13818909 -0.09138311
-0.1939105 0.113671675 -0.026746277 -0.04680598 -0.051263694 -0.05572141 -0.0356617 -0.07355226
-0.064636834 -0.15601994 -0.18722393 0.1783085 -0.08915425 -0.006686569 -0.12704481 0.23848763
-0.04234827 -0.17607965 -0.026746277 -0.09138311 -0.10252739 0.20282592 0.11590053 -0.040119413
-0.20951249 0.033432845 0.21174134 -0.008915425 -0.11590053 0.011144281 -0.08469654 -0.04680598
0.12927367 -0.069094546 -0.09584082 -0.14041795 -0.044577125 0.0156019945 0.11144282 0.08246768
-0.098069675 0.08246768 0.026746277 -0.028975133 -0.022288563 -0.040119413 0.09584082 -0.06017912
-0.14710452 0.075781114 0.15156223 0.1426468 -0.08915425 0.053492554 -0.05572141 0.2295722
0.13373138 0.037890557 0.124815956 0.2251145 -0.17162193 0.028975133 0.08246768 0.08246768
0.11590053 -0.13818909 0.16716422 -0.0022288563 -0.022288563 -0.10475624 -0.08469654 0.10698511
-0.16716422 -0.026746277 0.09138311 0.022288563 -0.10698511 0.113671675 -0.049034838 0.0
0.23625877 -0.09361196 -0.08246768 -0.031203989 -0.098069675 0.11590053 -0.0713234 0.08915425
-0.07800997 -0.09361196 0.05572141 0.08915425 -0.06017912 0.13150252 -0.11590053 0.031203989
0.075781114 -0.16270651 -0.14710452 -0.062407978 -0.07355226 0.1582488 -0.011144281 0.16716422
-0.16047765 0.040119413 0.17607965 -0.07800997 0.16939308 0.18276621 0.08469654 0.011144281
-0.124815956 -0.1582488 0.22288564 -0.07355226 0.10475624 -0.0156019945 -0.14041795 0.113671675
0.2808359 -0.049034838 0.026746277 0.21174134 0.053492554 -0.064636834 0.2808359 0.031203989
0.16270651 -0.033432845 0.17385079 0.24294534 -0.05572141 0.08915425 0.008915425 0.15156223
0.24294534 -0.0156019945 0.21619907 -0.062407978 0.04234827 0.12035824 0.24294534 -0.15379108
0.07355226 0.06686569 0.22065678 -0.04234827 -0.022288563 -0.14487566 0.075781114 0.086925395
-0.04234827 0.26300505 -0.11590053 0.0022288563 0.12927367 0.0 0.12035824 0.062407978
0.022288563 -0.17607965 0.113671675 0.14487566 0.044577125 0.18276621 0.07800997 -0.011144281
-0.049034838 -0.13596024 0.0044577126 0.25631848 0.17162193 -0.031203989 -0.11144282 -0.026746277
-0.026746277 0.08469654 -0.0022288563 0.15601994 0.20282592 -0.049034838 0.10698511 -0.0044577126
-0.17607965 0.026746277 -0.031203989 -0.04234827 0.28306475 -0.113671675 0.053492554 0.07800997
0.013373138 0.033432845 0.008915425 0.24740306 0.11812939 0.049034838 -0.12035824 0.09138311
0.020059707 -0.024517419 0.20282592 0.10698511 0.10029853 0.14487566 -0.14041795 0.12704481
-0.0044577126 -0.14710452 -0.098069675 0.14487566 0.057950266 0.031203989 -0.01783085 0.1426468
0.013373138 -0.0713234 -0.07800997 0.0356617 0.08915425 -0.11590053 0.044577125 0.10029853
